best_model.pth (torch, 37030 bytes, 5 tensors)

model.0.weight f4 [64, 100]
-0.029931238 -0.08119589 0.01928486 -0.06466701 0.06921732 -0.019618599 0.093175225 0.017805507
-0.14095964 0.08831884 -0.050125323 0.03377677 -0.14950977 0.08888866 -0.070812955 0.03151454
-0.00021419051 0.0504705 0.06363844 0.024893709 0.08464422 -0.12508751 -0.09617737 0.12584321
-0.11089638 -0.15948364 0.005467075 -0.039805133 -0.06738365 0.10679338 -0.005991788 -0.08149591
-0.10545038 -0.011166898 0.14828423 -0.06451911 0.035576724 0.028211877 0.027661385 0.09944901
0.007397807 0.10697483 0.070226565 0.043052435 0.026053647 -0.030405227 -0.063831575 0.072890945
0.08990999 -0.044332854 0.10473231 0.05829546 0.06907687 -0.058042116 -0.06522774 -0.122577906
0.054826092 -0.29378876 -0.0010118909 -0.1247524 -0.056629762 0.072210476 0.06790403 -0.07818389
-0.137243 0.0030322436 -0.08427916 -0.107306406 0.014729328 -0.016437996 0.10561406 -0.043693993
-0.080308214 0.0661949 0.022934109 0.17513022 0.08943296 -0.051229157 -0.05062412 0.11526158
0.060290065 0.07519736 0.001538336 -0.015996076 0.051855084 -0.0053250417 0.037472613 -0.06229451
-0.006458198 -0.007120293 -0.018954566 0.005756275 0.01882539 -0.02460578 -0.011180062 0.013538761
0.119181484 0.053210985 -0.022754358 0.14235173 0.1297436 0.06951928 -0.09407218 0.0049892566
0.041906517 -0.15687832 -0.07777233 -0.04311451 0.076979704 -0.16806811 -0.04570511 -0.1314521
0.016435057 -0.030315565 -0.08224826 0.055817362 -0.05806557 0.07864906 0.02025215 -0.0046717785
-0.060929604 -0.002452468 0.14056648 0.019422447 0.09840192 0.12017517 -0.029871581 -0.0039417
-0.034141295 -0.022571325 -0.02959726 0.016894696 0.009981787 0.14743836 0.09081895 0.124811165
0.0030431245 -0.11425997 0.021915046 -0.022339005 0.06920002 0.0064090826 -0.11374803 -0.17860442
-0.051247213 -0.14501888 0.12795736 -0.039332233 0.030405026 0.020656787 -0.095462725 -0.08787285
-0.03503122 0.048202965 0.03829731 -0.11636743 -0.04579538 -0.0783665 -0.025069378 -0.0620596
0.055762634 0.023196671 -0.06646194 0.013642627 0.0859492 0.002345835 0.017960899 -0.08319782
0.060857523 -0.0051478804 -0.04111375 -0.026413482 -0.045575224 -0.018402737 0.078197524 0.07230156
0.018204397 0.12072858 0.08468822 -0.015961686 0.03412223 0.07091417 -0.03244133 -0.024438744
-0.0025363248 -0.1290964 0.066144146 0.100185856 0.08372569 0.0022753272 -0.123565204 0.014593234
-0.1239669 0.03822777 0.054017127 -0.1483261 -0.0054623084 -0.09454821 0.054724578 0.1608934
0.044902794 -0.027723046 0.08023892 0.084113926 -0.14567333 0.0091956705 -0.0057445723 -0.014557896
4.2767933e-06 0.02385963 -0.14897121 0.06297694 -0.06488475 0.012011568 -0.0011319736 0.065722704
0.011462637 -0.08001306 0.11924126 0.05862938 -0.08440952 -0.052161384 -0.08868971 0.042010233
-0.13623023 0.022562848 0.02315469 -0.101059556 -0.07686805 -0.059284452 -0.08984927 -0.013271409
-0.06197308 -0.06132971 0.020035246 0.10307336 0.11192988 0.05326626 -0.1830328 0.011310743
-0.014165427 0.046503685 0.0396417 -0.09858333 -0.019242167 -0.1569785 0.010164719 0.024800627
-0.031392336 0.18168627 -0.07733336 -0.05276104 0.1342661 -0.07180481 -0.065802254 0.013248332
00000000: 5b32 f5bc 084a a6bd 48fb 9d3c 2370 84bd
00000010: cfc1 8d3d 2fb7 a0bc a7d2 be3d dbdc 913c
00000020: b957 10be 82e0 b43d 3650 4dbd 8359 0a3d
00000030: 1719 19be 420b b63d 6206 91bd 6415 013d
00000040: 5498 60b9 28ba 4e3d df54 823d e4ed cb3c
00000050: f359 ad3d f116 00be a4f8 c4bd 0bdd 003e
00000060: a41d e3bd ae4f 23be 2625 b33b b50a 23bd
00000070: 7000 8abd 7db6 da3d c356 c4bb 54e7 a6bd
00000080: 5ef6 d7bd 5df5 36bc d2d7 173e 9822 84bd
00000090: e6b8 113d 981c e73c 219a e23c ecab cb3d
000000a0: 4e69 f23b 9f15 db3d f2d2 8f3d c057 303d
000000b0: 756e d53c 6214 f9bc 21ba 82bd d947 953d
000000c0: bb22 b83d 5e96 35bd e57d d63d 38c7 6e3d
000000d0: 2d78 8d3d 92bd 6dbd 1f96 85bd 200a fbbd
000000e0: 5391 603d 7b6b 96be 6da1 84ba 307e ffbd
000000f0: 9cf4 67bd 16e3 933d 4511 8b3d e01e a0bd
00000100: 6e89 0cbe 9bb8 463b 8d9a acbd 76c3 dbbd
00000110: 4853 713c faa8 86bc 2f4c d83d 79f8 32bd
00000120: a278 a4bd 3191 873d 50e0 bb3c 5655 333e
00000130: a128 b73d aad5 51bd 3d5b 4fbd 430e ec3d
00000140: b7f2 763d 1301 9a3d fea1 c93a 340a 83bc
00000150: ff65 543d b07d aebb e27c 193d 8728 7fbd
00000160: 4b9f d3bb 5951 e9bb 9b46 9bbc 229f bc3b
00000170: b437 9a3c 1092 c9bc 942c 37bc aed1 5d3c
00000180: 6c15 f43d c3f3 593d 5967 babc a7c4 113e
00000190: 82db 043e 2060 8e3d eaa8 c0bd eb7c a33b
000001a0: 2ba6 2b3d b6a4 20be 1947 9fbd d798 30bd
000001b0: 89a7 9d3d 0c1a 2cbe 4835 3bbd 619b 06be
000001c0: d0a2 863c 5958 f8bc c771 a8bd bfa0 643d
000001d0: 2ad6 6dbd c212 a13d d6e7 a53c b815 99bb
000001e0: 5291 79bd 96b9 20bb a9f0 0f3e d31b 9f3c
000001f0: f286 c93d 661e f63d 3fb5 f4bc 6029 81bb
00000200: bed7 0bbd 80e7 b8bc f475 f2bc bf66 8a3c
00000210: a68a 233c 15fa 163e 49ff b93d ff9c ff3d
00000220: 286f 473b 2201 eabd 2f87 b33c 4a00 b7bc
00000230: bdb8 8d3d 4803 d23b baf4 e8bd 14e4 36be
00000240: 99e8 51bd d47f 14be 4107 033e d61a 21bd
00000250: f613 f93c 6c38 a93c f681 c3bd aef6 b3bd
00000260: e67c 0fbd 7970 453d a4dd 1c3d 0c52 eebd
00000270: f093 3bbd 9e7e a0bd 4c5e cdbc 3532 7ebd
00000280: 5c67 643d f206 be3c 331d 88bd 5385 5f3c
00000290: 2206 b03d 95bc 193b bc22 933c 9e63 aabd
000002a0: bd45 793d 8daf a8bb e466 28bd 1661 d8bc
000002b0: 16ad 3abd 56c1 96bc 0626 a03d d712 943d
000002c0: 6321 953c 8c40 f73d 0471 ad3d 15c2 82bc
000002d0: c0c3 0b3d 733b 913d 33e1 04bd c333 c8bc
000002e0: 7838 26bb d931 04be 9576 873d 3e2e cd3d
000002f0: 6078 ab3d a81d 153b c10f fdbd 7618 6f3c
00000300: 5ce2 fdbd b994 1c3d 1041 5d3d cce2 17be
00000310: 2afd b2bb 7ea2 c1bd e126 603d 3dc1 243e
00000320: feeb 373d 711b e3bc 4e54 a43d ec43 ac3d
00000330: 642b 15be 70a9 163c f73c bcbb 3e84 6ebc
00000340: 6081 8f36 4575 c33c e98b 18be 0efa 803d
00000350: 4ce2 84bd 2bcc 443c bb5e 94ba a099 863d
00000360: c9cd 3b3c e3dd a3bd c334 f43d 5c25 703d
00000370: e6de acbd 2da7 55bd f3a2 b5bd ec12 2c3d
00000380: f07f 0bbe b9d5 b83c e8ae bd3c 50f8 cebd
00000390: ff6c 9dbd 41d4 72bd e502 b8bd 5370 59bc
000003a0: 7cd7 7dbd dd34 7bbd f520 a43c 2018 d33d
000003b0: 7e3b e53d b92d 5a3d f36c 3bbe b250 393c
000003c0: 1b16 68bc a67a 3e3d 565f 223d 0fe6 c9bd
000003d0: c0a1 9dbc f9be 20be ec89 263c af2a cb3c
000003e0: 4095 00bd f70b 3a3e f460 9ebd f61b 58bd
000003f0: 0d7d 093e 660e 93bd 55c3 86bd 880f 593c

model.0.bias f4 [64]
-0.09011801 0.07577182 -0.060278077 -0.032737363 0.09983366 0.023403374 -0.0005120517 -0.066265345
-0.022044543 -0.023679374 0.04526441 -0.09647892 0.08238042 0.06755775 0.019917872 0.042355884
0.0691369 -0.049387384 -0.09354326 -0.02134579 -0.028005242 -0.061280817 0.11633589 0.021295868
0.045636244 -0.01275009 -0.039442856 0.078954645 0.0077538593 0.08204574 -0.027824793 -0.062044498
0.052393083 0.07687551 -0.07415294 -0.048026778 -0.016113814 0.11514366 -0.012954511 0.033079874
0.061250094 0.07563216 -0.0737974 -0.06300489 -0.07131738 0.04100636 -0.0847683 0.026817763
-0.06162493 0.06810738 0.08599885 -0.029048692 0.002360485 0.028903488 0.060069036 -0.035422474
-0.014261856 -0.039342787 -0.04170051 0.036684994 -0.06322796 -0.01625243 0.028500551 -0.0933411
00000000: cb8f b8bd 422e 9b3d 25e6 76bd 9d17 06bd
00000010: 9775 cc3d 6fb8 bf3c 353b 06ba 20b6 87bd
00000020: c296 b4bc 3ffb c1bc 2d67 393d bd96 c5bd
00000030: 11b7 a83d b85b 8a3d ce2a a33c 5d7d 2d3d
00000040: a697 8d3d 6d4a 4abd 9c93 bfbd 5edd aebc
00000050: 406b e5bc 9801 7bbd 8341 ee3d ac74 ae3c
00000060: 12ed 3a3d c1e5 50bc d58e 21bd f9b2 a13d
00000070: 1614 fe3b 9907 a83d d2f0 e3bc 5f22 7ebd
00000080: 219a 563d e870 9d3d 7fdd 97bd bab7 44bd
00000090: 1e01 84bc 70d0 eb3d 283f 54bc c37e 073d
000000a0: 61e1 7a3d 09e5 9a3d 1723 97bd b508 81bd
000000b0: d90e 92bd 49f6 273d 019b adbd edb0 db3c
000000c0: 6c6a 7cbd e27b 8b3d 2a20 b03d 86f7 edbc
000000d0: 5eb2 1a3b 02c7 ec3c f30a 763d 2817 11bd
000000e0: 8faa 69bc e725 21bd 27ce 2abd 0143 163d
000000f0: a97d 81bd d123 85bc fd79 e93c 9e29 bfbd

model.2.weight f4 [32, 64]
0.08781678 0.18738711 0.16761018 -0.22929054 0.0056468467 -0.14360052 0.018751496 -0.19275647
-0.04164444 0.048099775 0.059625562 -0.06310162 0.0031952336 0.34861752 -0.0070968703 0.056527484
0.008574183 0.11589756 -0.22545864 0.020701474 0.027153656 0.07255315 -0.09407491 0.112334326
-0.13272597 0.113154806 0.08030428 -0.07519476 0.031656276 0.11007967 0.06631351 -0.0729836
0.11003721 0.088618726 -0.11060767 0.069305226 0.08305995 0.03319749 0.117683284 -0.10841242
0.060169388 -0.10377167 -0.07255176 0.16018786 -0.0069638477 -0.02195048 -0.06253312 -0.023777876
-0.3419982 0.09193011 0.17690212 0.06769535 -0.29391283 -0.02013425 -0.112635694 0.0012923394
-0.24055476 0.09321204 0.021910217 0.036258966 -0.10615623 0.02247713 -0.0446351 0.036536146
0.10251609 -0.04801026 0.1530655 -0.08901112 0.105275154 -0.14941019 -0.023439229 -0.04467706
-0.055055097 0.11467481 0.12311629 0.11971027 0.10341229 0.083870485 -0.013506679 0.13539815
0.08192027 -0.09470035 0.098044306 0.054265805 0.054605633 0.06369496 0.11164716 -0.08861374
-0.08434135 0.11889295 0.11702696 0.0080174785 -0.06053057 0.01116722 0.035787348 0.07263829
-0.042830393 0.2462606 -0.077573754 0.0962824 -0.036790617 0.021154758 0.14603966 -0.17828842
-0.092799045 0.049599856 0.019892976 -0.0062688114 -0.044981606 0.08337653 0.017048158 0.11048682
-0.05707876 -0.0063161417 0.16743007 -0.098499954 -0.12718964 0.0068803676 -0.08438461 0.0016981612
-0.042764742 0.182816 0.06223871 0.0007961807 0.0011524231 -0.018244369 0.016917994 0.20043555
-0.012582238 0.14417598 0.05083892 -0.06175048 0.23619413 -0.14638814 0.07580481 0.0143082095
-0.060685333 0.09791039 -0.04837154 0.06156815 -0.02589133 0.13601743 0.03668393 0.089397736
-0.0837212 -0.02374629 0.09339139 0.040923726 0.011649708 -0.07848581 0.11552208 -0.06899957
0.014801393 0.068769336 0.057038568 0.07168754 -0.06885774 0.098082334 0.11149143 -0.025870103
0.064875595 0.22774994 -0.06905056 0.21275647 -0.012461197 0.12260476 0.15316395 0.029568631
0.0010642279 0.10921663 0.04179828 0.06853268 0.06382479 0.09294883 0.037390187 0.09959214
-0.0035772359 -0.008646009 0.20517151 -0.11045233 -0.14728779 0.012808835 -0.045333643 -0.10729128
-0.20404758 0.09568355 0.13376014 -0.006053149 -0.00905695 0.11878222 0.01680454 0.3038735
-0.3109899 0.073867574 0.013084383 0.036470868 -0.009904769 -0.0051309415 0.07802115 0.040506706
-0.014709966 -0.046616178 -0.10001643 0.10186647 -0.116246015 -0.0836786 -0.17346345 -0.049472578
0.064073555 0.07071194 -0.14300248 0.14334048 0.07682032 -0.07179615 -0.11459004 0.05748448
0.019176569 0.034596547 0.11906266 -0.027684635 -0.12739648 -0.19268548 0.15174489 0.20371595
0.01915247 0.08640506 0.0912828 -0.08987545 -0.07573344 -0.13368003 -0.0795589 0.028711373
-0.07942851 0.166824 0.09319936 -0.15529893 0.08464512 0.23286393 -0.1186665 -0.11585861
0.015256224 0.17092016 0.08621481 -0.06893218 0.086319916 0.026859889 -0.018043945 -0.12887281
-0.06740532 -0.03390978 0.03620026 0.017774696 0.106491916 0.004624218 -0.04325401 0.19509141
00000000: 49d9 b33d 68e2 3f3e 01a2 2b3e 24cb 6abe
00000010: 2f09 b93b 040c 13be bd9c 993c f461 45be
00000020: 5c93 2abd 4504 453d ef39 743d 6c3b 81bd
00000030: 2067 513b ff7d b23e dd8c e8bb 5d89 673d
00000040: bb7a 0c3c b35b ed3d a1de 66be 2396 a93c
00000050: 5871 de3c bf96 943d 59aa c0bd 8a0f e63d
00000060: 51e9 07be b5bd e73d 9276 a43d b6ff 99bd
00000070: 03aa 013d 7371 e13d 61cf 873d 6d78 95bd
00000080: 305b e13d bc7d b53d 4686 e2bd e6ef 8d3d
00000090: 561b aa3d 17fa 073d ef03 f13d 5507 debd
000000a0: 2d74 763d 3e86 d4bd 0496 94bd 4908 243e
000000b0: fd30 e4bb 7ed1 b3bc 5d11 80bd d2c9 c2bc
000000c0: 631a afbe da45 bc3d d425 353e dca3 8a3d
000000d0: be7b 96be 95f0 a4bc 8bad e6bd b763 a93a
000000e0: fd53 76be f4e5 be3d 0e7d b33c 4884 143d
000000f0: 7068 d9bd f521 b83c 4bd3 36bd eda6 153d
00000100: f5f3 d13d 68a6 44bd 34bd 1c3e 764b b6bd
00000110: 809a d73d fcfe 18be a003 c0bc 4bff 36bd
00000120: 7481 61bd a0da ea3d 6524 fc3d a82a f53d
00000130: d3c9 d33d 4ac4 ab3d 1e4b 5dbc d0a5 0a3e
00000140: d1c5 a73d 42f2 c1bd 74cb c83d d245 5e3d
00000150: 28aa 5f3d 8172 823d 44a7 e43d 1f7b b5bd
00000160: 28bb acbd 267e f33d d5ab ef3d be5b 033c
00000170: e7ee 77bd b7f6 363c c195 123d 62c3 943d
00000180: ec6e 2fbd bd2b 7c3e fdde 9ebd b52f c53d
00000190: c2b1 16bd be4c ad3c 6c8b 153e 3d91 36be
000001a0: 6d0d bebd 3829 4b3d 98f6 a23c 9a6a cdbb
000001b0: a23e 38bd 50c1 aa3d 94a8 8b3c ea46 e23d
000001c0: 6bcb 69bd a3f7 cebb ca72 2b3e 58ba c9bd
000001d0: 003e 02be b574 e13b d7d1 acbd d694 de3a
000001e0: 152a 2fbd 1e34 3b3e 04ee 7e3d c8b6 503a
000001f0: e70c 973a 3775 95bc 9b97 8a3c fa3e 4d3e
00000200: bb25 4ebc dea2 133e 793c 503d 12ee 7cbd
00000210: e0dc 713e c6e6 15be 8d3f 9b3d fb6c 6a3c
00000220: 2f91 78bd 3e85 c83d 3c21 46bd e22e 7c3d
00000230: 0e1a d4bc 2748 0b3e e341 163d 2916 b73d
00000240: 0576 abbd 9487 c2bc fc43 bf3d a39f 273d
00000250: 6bde 3e3c 2bbd a0bd d796 ec3d a64f 8dbd
00000260: 8b81 723c f0d6 8c3d 46a1 693d ebd0 923d
00000270: 4905 8dbd 64df c83d 9e55 e43d 8aed d3bc
00000280: 7fdd 843d 4837 693e 616a 8dbd d5dc 593e
00000290: 0c2a 4cbc 3418 fb3d 03d7 1c3e ea39 f23c
000002a0: 907d 8b3a f8ac df3d ac34 2b3d dd5a 8c3d
000002b0: 92b6 823d f55b be3d 7426 193d f7f6 cb3d
000002c0: 0f70 6abb fda7 0dbc 7b18 523e d534 e2bd
000002d0: 9cd2 16be 26dc 513c c5af 39bd 88bb dbbd
000002e0: d9f1 50be bdf5 c33d 6bf8 083e 7e59 c6bb
000002f0: 9a63 14bc 1844 f33d ada9 893c 4f95 9b3e
00000300: 113a 9fbe e247 973d e15f 563c 7a62 153d
00000310: 9d47 22bc 7521 a8bb 8dc9 9f3d 5cea 253d
00000320: 1202 71bc 9bf0 3ebd 6ad5 ccbd 5e9f d03d
00000330: 6412 eebd b05f abbd 67a0 31be c2a3 4abd
00000340: ff38 833d 6cd1 903d 3e6f 12be d9c7 123e
00000350: f953 9d3d dc09 93bd 2fae eabd d974 6b3d
00000360: 2e18 9d3c 1cb5 0d3d 20d7 f33d e3ca e2bc
00000370: 3974 02be 584f 45be 0363 1b3e ea9a 503e
00000380: a4e5 9c3c 23f5 b03d 7af2 ba3d 9f10 b8bd
00000390: 221a 9bbd 6be3 08be c7ef a2bd 1d34 eb3c
000003a0: 6aab a2bd e9d3 2a3e 4edf be3d af06 1fbe
000003b0: 6c5a ad3d e273 6e3e 6c07 f3bd 4747 edbd
000003c0: 3ef5 793c b205 2f3e 6491 b03d 512c 8dbd
000003d0: 7fc8 b03d 4509 dc3c e5d0 93bc 3cf7 03be
000003e0: cd0b 8abd fbe4 0abd b946 143d 3d9c 913c
000003f0: 6f18 da3d c186 973b 1e2b 31bd 0bc6 473e

model.2.bias f4 [32]
-0.046039086 -0.038883068 0.02201312 -0.011848725 0.053303182 0.057129975 0.08274236 -0.06791119
0.10813729 -0.069093905 -0.11630443 0.03560482 0.0805793 0.010266423 -0.012481667 0.13862266
-0.055830207 -0.010167934 0.121622264 -0.12934394 0.0339064 0.08512868 -0.07979248 0.14250273
0.10844008 0.07804976 0.10287589 -0.009460267 -0.030594451 -0.06617514 0.06883693 0.07110405
00000000: 7b93 3cbd da43 1fbd dc54 b43c 2821 42bc
00000010: 7054 5a3d 1f01 6a3d d474 a93d 0615 8bbd
00000020: 1577 dd3d 1b81 8dbd 0431 eebd 5cd6 113d
00000030: c306 a53d 8034 283c e87f 4cbc 19f3 0d3e
00000040: 37ae 64bd 6897 26bc 1815 f93d bd72 04be
00000050: 70e1 0a3d f257 ae3d 3d6a a3bd 3cec 113e
00000060: d515 de3d 8dd8 9f3d 98b0 d23d 3cff 1abc
00000070: 37a1 fabc d586 87bd 60fa 8c3d 009f 913d

model.4.weight f4 [1, 32]
0.33914804 0.11693934 0.14539994 -0.27421054 0.20149948 0.18409821 0.19968295 0.11305335
-0.3870737 -0.19144844 -0.51806945 -0.09905329 -0.007601235 -0.2980411 -0.25588107 0.19290197
-0.12711914 -0.11309694 0.15490575 -0.0750096 -0.34098744 -0.42765197 -0.09846372 0.08774193
0.06051055 0.13151361 0.21248893 -0.36167517 -0.23286062 -0.21800332 0.25241783 -0.05195813
00000000: d0a4 ad3e e57d ef3d b9e3 143e 5365 8cbe
00000010: e155 4e3e 3e84 3c3e b079 4c3e 8488 e73d
00000020: 862e c6be 0f0b 44be 33a0 04bf 74dc cabd
00000030: c813 f9bb d898 98be d802 83be 1888 453e
00000040: 852b 02be 5e9f e7bd 9d9f 1e3e a29e 99bd
00000050: e895 aebe 33f5 dabe 59a7 c9bd 0ab2 b33d
00000060: e9d9 773d 81ab 063e b396 593e 7d2d b9be
00000070: 0473 6ebe 433c 5fbe e93c 813e 0cd2 54bd
